…
.weight                           | UNEXPECTED |  | \r\ntext_projection.weight                                       | UNEXPECTED |  | \r\ntext_model.embeddings.token_embedding.weight                 | UNEXPECTED |  | \r\nvisual_projection.weight                                     | UNEXPECTED |  | \r\ntext_model.final_layer_norm.bias                             | UNEXPECTED |  | \r\n\r\nNotes:\r\n- UNEXPECTED:\tcan be ignored when loading from different task/architecture; not ok if you expect identical arch.\r\nCLIPVisionModel(\r\n  (embeddings): CLIPVisionEmbeddings(\r\n    (patch_embedding): Conv2d(3, 768, kernel_size=(32, 32), stride=(32, 32), bias=False)\r\n    (position_embedding): Embedding(50, 768)\r\n  )\r\n  (pre_layrnorm): LayerNorm((768,), eps=1e-05, elementwise_affine=True, bias=True)\r\n  (encoder): CLIPEncoder(\r\n    (layers): ModuleList(\r\n      (0-11): 12 x CLIPEncoderLayer(\r\n        (self_attn): CLIPAttention(\r\n          (k_proj): Linear(in_features=768, out_features=768, bias=True)\r\n          (v_proj): Linear(in_features=768, out_features=768, bias=True)\r\n          (q_proj): Linear(in_features=768, out_features=768, bias=True)\r\n          (out_proj): Linear(in_features=768, out_features=768, bias=True)\r\n        )\r\n        (layer_norm1): LayerNorm((768,), eps=1e-05, elementwise_affine=True, bias=True)\r\n        (mlp): CLIPMLP(\r\n          (activation_fn): QuickGELUActivation()\r\n          (fc1): Linear(in_features=768, out_features=3072, bias=True)\r\n          (fc2): Linear(in_features=3072, out_features=768, bias=True)\r\n        )\r\n        (layer_norm2): LayerNorm((768,), eps=1e-05, elementwise_affine=True, bias=True)\r\n      )\r\n    )\r\n  )\r\n  (post_layernorm): LayerNorm((768,), eps=1e-05, elementwise_affine=True, bias=True)\r\n)","is_error":false}]},"uuid":"7ec75b90-be77-4c3a-9895-72a45e5d39c5","timestamp":"2026-05-23T09:45:51.014Z","toolUseResult":{"stdout":"Warning: You are sending unauthenticated requests to the HF Hub. Please set a HF_TOKEN to enable higher rate limits and faster downloads.\r\n\rLoading weights:   0%|          | 0/199 [00:00<?, ?it/s]\rLoadin
…
.weight                           | UNEXPECTED |  | \r\ntext_projection.weight                                       | UNEXPECTED |  | \r\ntext_model.embeddings.token_embedding.weight                 | UNEXPECTED |  | \r\nvisual_projection.weight                                     | UNEXPECTED |  | \r\ntext_model.final_layer_norm.bias                             | UNEXPECTED |  | \r\n\r\nNotes:\r\n- UNEXPECTED:\tcan be ignored when loading from different task/architecture; not ok if you expect identical arch.\r\nCLIPVisionModel(\r\n  (embeddings): CLIPVisionEmbeddings(\r\n    (patch_embedding): Conv2d(3, 768, kernel_size=(32, 32), stride=(32, 32), bias=False)\r\n    (position_embedding): Embedding(50, 768)\r\n  )\r\n  (pre_layrnorm): LayerNorm((768,), eps=1e-05, elementwise_affine=True, bias=True)\r\n  (encoder): CLIPEncoder(\r\n    (layers): ModuleList(\r\n      (0-11): 12 x CLIPEncoderLayer(\r\n        (self_attn): CLIPAttention(\r\n          (k_proj): Linear(in_features=768, out_features=768, bias=True)\r\n          (v_proj): Linear(in_features=768, out_features=768, bias=True)\r\n          (q_proj): Linear(in_features=768, out_features=768, bias=True)\r\n          (out_proj): Linear(in_features=768, out_features=768, bias=True)\r\n        )\r\n        (layer_norm1): LayerNorm((768,), eps=1e-05, elementwise_affine=True, bias=True)\r\n        (mlp): CLIPMLP(\r\n          (activation_fn): QuickGELUActivation()\r\n          (fc1): Linear(in_features=768, out_features=3072, bias=True)\r\n          (fc2): Linear(in_features=3072, out_features=768, bias=True)\r\n        )\r\n        (layer_norm2): LayerNorm((768,), eps=1e-05, elementwise_affine=True, bias=True)\r\n      )\r\n    )\r\n  )\r\n  (post_layernorm): LayerNorm((768,), eps=1e-05, elementwise_affine=True, bias=True)\r\n)","stderr":"","interrupted":false,"isImage":false,"noOutputExpected":false},"sourceToolAssistantUUID":"ab1f4ee0-a289-4894-ac75-0a659f6ce16a","userType":"external","entrypoint":"cli","cwd":"D:\\python_learn\\Mini-BLIP2\\blip2-main","sessionId":"4b14d1d0-74d9-4ad1-9a6d-3ab51b3976b4","version":"2.1.143","gitBranch":"main"}
{"parentUuid":"7ec7
…
